…
   "cell_type": "markdown",
   "metadata": {
    "collapsed": false
   },
   "source": [
    "# Image classification"
   ]
  },
  {
   "cell_type": "code",
   "execution_count": 18,
   "metadata": {
    "collapsed": false
   },
   "outputs": [
    {
     "name": "stdout",
     "output_type": "stream",
     "text": [
      "Model: \"sequential\"\n",
      "_________________________________________________________________\n",
      " Layer (type)                Output Shape              Param #   \n",
      "=================================================================\n",
      " conv1d (Conv1D)             (None, 39544, 32)         192       \n",
      "                                                                 \n",
      " batch_normalization (Batch  (None, 39544, 32)         128       \n",
      " Normalization)                                                  \n",
      "                                                                 \n",
      " leaky_re_lu (LeakyReLU)     (None, 39544, 32)         0         \n",
      "                                                                 \n",
      " conv1d_1 (Conv1D)           (None, 39540, 32)         5152      \n",
      "                                                                 \n",
      " batch_normalization_1 (Bat  (None, 39540, 32)         128       \n",
      " chNormalization)                                                \n",
      "                                                                 \n",
      " leaky_re_lu_1 (LeakyReLU)   (None, 39540, 32)         0         \n",
      "                                                                 \n",
      " max_pooling1d (MaxPooling1  (None, 19770, 32)         0         \n",
      " D)                                                              \n",
      "                                                                 \n",
      " conv1d_2 (Conv1D)           (None, 19767, 64)         8256      \n",
      "                                                                 \n",
      " batch_normalization_2 (Bat  (None, 19767, 64)         256       \n",
      " chNormalization)                                                \n",
      "                                                                 \n",
      " leaky_re_lu_2 (LeakyReLU)   (None, 19767, 64)         0         \n",
      "                                                                 \n",
      " conv1d_3 (Conv1D)           (None, 19764, 64)         16448     \n",
      "                                                                 \n",
      " batch_normalization_3 (Bat  (None, 19764, 64)         256       \n",
      " chNormalization)                                                \n",
      "                                                                 \n",
      " leaky_re_lu_3 (LeakyReLU)   (None, 19764, 64)         0         \n",
      "                                                                 \n",
      " max_pooling1d_1 (MaxPoolin  (None, 9882, 64)          0         \n",
      " g1D)                                                            \n",
      "                                                                 \n",
      " conv1d_4 (Conv1D)           (None, 9880, 128)         24704     \n",
      "                                                                 \n",
      " batch_normalization_4 (Bat  (None, 9880, 128)         512       \n",
      " chNormalization)                                                \n",
      "                                                                 \n",
      " leaky_re_lu_4 (LeakyReLU)   (None, 9880, 128)         0         \n",
      "                                                                 \n",
      " conv1d_5 (Conv1D)           (None, 9878, 128)         49280     \n",
      "                                                                 \n",
      " batch_normalization_5 (Bat  (None, 9878, 128)         512       \n",
      " chNormalization)                                                \n",
      "                                                                 \n",
      " leaky_re_lu_5 (LeakyReLU)   (None, 9878, 128)         0         \n",
      "                                                                 \n",
      " max_pooling1d_2 (MaxPoolin  (None, 4939, 128)         0         \n",
      " g1D)                                                            \n",
      "                                                                 \n",
      " flatten (Flatten)           (None, 632192)            0         \n",
      "                                                                 \n",
      " dense (Dense)               (None, 256)               161841408 \n",
      "                                                                 \n",
      " dense_1 (Dense)             (None, 256)               65792     \n",
      "                                                                 \n",
      " dense_2 (Dense)             (None, 133)               34181     \n",
      "                                                                 \n",
      "=================================================================\n",
      "Total params: 162047205 (618.16 MB)\n",
      "Trainable params: 162046309 (618.16 MB)\n",
      "Non-trainable params: 896 (3.50 KB)\n",
      "_________________________________________________________________\n"
     ]
    }
   ],
…
   "cell_type": "code",
   "execution_count": 35,
   "metadata": {
    "ExecuteTime": {
     "end_time": "2023-12-05T14:40:29.184786Z",
     "start_time": "2023-12-05T14:40:28.813454Z"
    },
    "collapsed": false
   },
   "outputs": [
    {
     "name": "stdout",
     "output_type": "stream",
     "text": [
      "Model: \"sequential_1\"\n",
      "_________________________________________________________________\n",
      " Layer (type)                Output Shape              Param #   \n",
      "=================================================================\n",
      " conv2d (Conv2D)             (None, 200, 200, 1)       10        \n",
      "                                                                 \n",
      " batch_normalization_6 (Bat  (None, 200, 200, 1)       4         \n",
      " chNormalization)                                                \n",
      "                                                                 \n",
      " conv2d_1 (Conv2D)           (None, 200, 200, 32)      320       \n",
      "                                                                 \n",
      " conv2d_2 (Conv2D)           (None, 200, 200, 32)      9248      \n",
      "                                                                 \n",
      " batch_normalization_7 (Bat  (None, 200, 200, 32)      128       \n",
      " chNormalization)                                                \n",
      "                                                                 \n",
      " max_pooling2d (MaxPooling2  (None, 100, 100, 32)      0         \n",
      " D)                                                              \n",
      "                                                                 \n",
      " conv2d_3 (Conv2D)           (None, 100, 100, 64)      18496     \n",
      "                                                                 \n",
      " conv2d_4 (Conv2D)           (None, 100, 100, 64)      36928     \n",
      "                                                                 \n",
      " batch_normalization_8 (Bat  (None, 100, 100, 64)      256       \n",
      " chNormalization)                                                \n",
      "                                                                 \n",
      " max_pooling2d_1 (MaxPoolin  (None, 50, 50, 64)        0         \n",
      " g2D)                                                            \n",
      "                                                                 \n",
      " conv2d_5 (Conv2D)           (None, 50, 50, 128)       73856     \n",
      "                                                                 \n",
      " conv2d_6 (Conv2D)           (None, 50, 50, 128)       147584    \n",
      "                                                                 \n",
      " batch_normalization_9 (Bat  (None, 50, 50, 128)       512       \n",
      " chNormalization)                                                \n",
      "                                                                 \n",
      " max_pooling2d_2 (MaxPoolin  (None, 25, 25, 128)       0         \n",
      " g2D)                                                            \n",
      "                                                                 \n",
      "=================================================================\n",
      "Total params: 287342 (1.10 MB)\n",
      "Trainable params: 286892 (1.09 MB)\n",
      "Non-trainable params: 450 (1.76 KB)\n",
      "_________________________________________________________________\n",
      "Model: \"sequential_2\"\n",
      "_________________________________________________________________\n",
      " Layer (type)                Output Shape              Param #   \n",
      "=================================================================\n",
      " conv2d_7 (Conv2D)           (None, 25, 25, 128)       147584    \n",
      "                                                                 \n",
      " conv2d_8 (Conv2D)           (None, 25, 25, 128)       147584    \n",
      "                                                                 \n",
      " batch_normalization_10 (Ba  (None, 25, 25, 128)       512       \n",
      " tchNormalization)                                               \n",
      "                                                                 \n",
      " up_sampling2d (UpSampling2  (None, 75, 75, 128)       0         \n",
      " D)                                                              \n",
      "                                                                 \n",
      " conv2d_9 (Conv2D)           (None, 75, 75, 64)        73792     \n",
      "                                                                 \n",
      " conv2d_10 (Conv2D)          (None, 75, 75, 64)        36928     \n",
      "                                                                 \n",
      " batch_normalization_11 (Ba  (None, 75, 75, 64)        256       \n",
      " tchNormalization)                                               \n",
      "                                                                 \n",
      " up_sampling2d_1 (UpSamplin  (None, 150, 150, 64)      0         \n",
      " g2D)                                                            \n",
      "                                                                 \n",
      " conv2d_11 (Conv2D)          (None, 150, 150, 32)      18464     \n",
      "                                                                 \n",
      " conv2d_12 (Conv2D)          (None, 150, 150, 32)      9248      \n",
      "                                                                 \n",
      " batch_normalization_12 (Ba  (None, 150, 150, 32)      128       \n",
      " tchNormalization)                                               \n",
      "                                                                 \n",
      " up_sampling2d_2 (UpSamplin  (None, 300, 300, 32)      0         \n",
      " g2D)                                                            \n",
      "                                                                 \n",
      " conv2d_13 (Conv2D)          (None, 300, 300, 1)       289       \n",
      "                                                                 \n",
      "=================================================================\n",
      "Total params: 434785 (1.66 MB)\n",
      "Trainable params: 434337 (1.66 MB)\n",
      "Non-trainable params: 448 (1.75 KB)\n",
      "_________________________________________________________________\n"
     ]
    }
   ],
   "source": [
…
   "cell_type": "code",
   "execution_count": 41,
   "metadata": {
    "ExecuteTime": {
     "end_time": "2023-12-05T14:46:08.136898Z",
     "start_time": "2023-12-05T14:46:07.852968Z"
    },
    "collapsed": false
   },
   "outputs": [
    {
     "name": "stdout",
     "output_type": "stream",
     "text": [
      "Model: \"sequential_4\"\n",
      "_________________________________________________________________\n",
      " Layer (type)                Output Shape              Param #   \n",
      "=================================================================\n",
      " conv2d_14 (Conv2D)          (None, 99, 99, 32)        544       \n",
      "                                                                 \n",
      " batch_normalization_13 (Ba  (None, 99, 99, 32)        128       \n",
      " tchNormalization)                                               \n",
      "                                                                 \n",
      " leaky_re_lu_6 (LeakyReLU)   (None, 99, 99, 32)        0         \n",
      "                                                                 \n",
      " dropout (Dropout)           (None, 99, 99, 32)        0         \n",
      "                                                                 \n",
      " conv2d_15 (Conv2D)          (None, 49, 49, 64)        18496     \n",
      "                                                                 \n",
      " batch_normalization_14 (Ba  (None, 49, 49, 64)        256       \n",
      " tchNormalization)                                               \n",
      "                                                                 \n",
      " leaky_re_lu_7 (LeakyReLU)   (None, 49, 49, 64)        0         \n",
      "                                                                 \n",
      " dropout_1 (Dropout)         (None, 49, 49, 64)        0         \n",
      "                                                                 \n",
      "=================================================================\n",
      "Total params: 19424 (75.88 KB)\n",
      "Trainable params: 19232 (75.12 KB)\n",
      "Non-trainable params: 192 (768.00 Byte)\n",
      "_________________________________________________________________\n",
      "Model: \"sequential_5\"\n",
      "_________________________________________________________________\n",
      " Layer (type)                Output Shape              Param #   \n",
      "=================================================================\n",
      " conv2d_16 (Conv2D)          (None, 24, 24, 128)       73856     \n",
      "                                                                 \n",
      "=================================================================\n",
      "Total params: 73856 (288.50 KB)\n",
      "Trainable params: 73856 (288.50 KB)\n",
      "Non-trainable params: 0 (0.00 Byte)\n",
      "_________________________________________________________________\n",
      "Model: \"sequential_6\"\n",
      "_________________________________________________________________\n",
      " Layer (type)                Output Shape              Param #   \n",
      "=================================================================\n",
      " batch_normalization_15 (Ba  (None, 24, 24, 128)       512       \n",
      " tchNormalization)                                               \n",
      "                                                                 \n",
      " leaky_re_lu_8 (LeakyReLU)   (None, 24, 24, 128)       0         \n",
      "                                                                 \n",
      " dropout_2 (Dropout)         (None, 24, 24, 128)       0         \n",
      "                                                                 \n",
      " conv2d_transpose (Conv2DTr  (None, 49, 49, 64)        73792     \n",
      " anspose)                                                        \n",
      "                                                                 \n",
      " batch_normalization_16 (Ba  (None, 49, 49, 64)        256       \n",
      " tchNormalization)                                               \n",
      "                                                                 \n",
      " leaky_re_lu_9 (LeakyReLU)   (None, 49, 49, 64)        0         \n",
      "                                                                 \n",
      " dropout_3 (Dropout)         (None, 49, 49, 64)        0         \n",
      "                                                                 \n",
      " conv2d_transpose_1 (Conv2D  (None, 99, 99, 32)        18464     \n",
      " Transpose)                                                      \n",
      "                                                                 \n",
      " batch_normalization_17 (Ba  (None, 99, 99, 32)        128       \n",
      " tchNormalization)                                               \n",
      "                                                                 \n",
      " leaky_re_lu_10 (LeakyReLU)  (None, 99, 99, 32)        0         \n",
      "                                                                 \n",
      " dropout_4 (Dropout)         (None, 99, 99, 32)        0         \n",
      "                                                                 \n",
      " conv2d_transpose_2 (Conv2D  (None, 200, 200, 3)       1539      \n",
      " Transpose)                                                      \n",
      "                                                                 \n",
      "=================================================================\n",
      "Total params: 94691 (369.89 KB)\n",
      "Trainable params: 94243 (368.14 KB)\n",
      "Non-trainable params: 448 (1.75 KB)\n",
      "_________________________________________________________________\n",
      "Model: \"sequential_7\"\n",
      "_________________________________________________________________\n",
      " Layer (type)                Output Shape              Param #   \n",
      "=================================================================\n",
      " sequential_4 (Sequential)   (None, 49, 49, 64)        19424     \n",
      "                                                                 \n",
      " sequential_5 (Sequential)   (None, 24, 24, 128)       73856     \n",
      "                                                                 \n",
      " sequential_6 (Sequential)   (None, 200, 200, 3)       94691     \n",
      "                                                                 \n",
      "=================================================================\n",
      "Total params: 187971 (734.26 KB)\n",
      "Trainable params: 187331 (731.76 KB)\n",
      "Non-trainable params: 640 (2.50 KB)\n",
      "_________________________________________________________________\n"
     ]
    }
   ],
   "source": [
…
